{
  "layers" : [
    {
      "pad_r" : 1,
      "fused_relu" : 0,
      "fused_tanh" : 0,
      "debug_info" : "input.3",
      "pad_fill_mode" : 0,
      "pad_b" : 1,
      "pad_l" : 1,
      "top" : "input.3",
      "blob_weights" : 3,
      "K" : 3,
      "blob_biases" : 1,
      "stride_x" : 2,
      "name" : "input.3",
      "has_batch_norm" : 0,
      "type" : "convolution",
      "n_groups" : 1,
      "pad_t" : 1,
      "stride_y" : 2,
      "has_biases" : 1,
      "C" : 32,
      "bottom" : "input_1",
      "weights" : {

      },
      "Nx" : 3,
      "pad_mode" : 0,
      "pad_value" : 0,
      "Ny" : 3,
      "n_parallel" : 1
    },
    {
      "bottom" : "input.3",
      "alpha" : 0,
      "operation" : 119,
      "weights" : {

      },
      "fused_relu" : 0,
      "debug_info" : "input.4",
      "top" : "input.4",
      "type" : "elementwise",
      "name" : "input.4",
      "beta" : 6
    },
    {
      "pad_r" : 1,
      "fused_relu" : 0,
      "fused_tanh" : 0,
      "debug_info" : "input.6",
      "pad_fill_mode" : 0,
      "pad_b" : 1,
      "pad_l" : 1,
      "top" : "input.6",
      "blob_weights" : 7,
      "K" : 32,
      "blob_biases" : 5,
      "name" : "input.6",
      "has_batch_norm" : 0,
      "type" : "convolution",
      "n_groups" : 32,
      "pad_t" : 1,
      "has_biases" : 1,
      "C" : 32,
      "bottom" : "input.4",
      "weights" : {

      },
      "Nx" : 3,
      "pad_mode" : 0,
      "pad_value" : 0,
      "Ny" : 3,
      "n_parallel" : 1
    },
    {
      "bottom" : "input.6",
      "alpha" : 0,
      "operation" : 119,
      "weights" : {

      },
      "fused_relu" : 0,
      "debug_info" : "input.7",
      "top" : "input.7",
      "type" : "elementwise",
      "name" : "input.7",
      "beta" : 6
    },
    {
      "pad_r" : 0,
      "fused_relu" : 0,
      "fused_tanh" : 0,
      "debug_info" : "input.9",
      "pad_fill_mode" : 0,
      "pad_b" : 0,
      "pad_l" : 0,
      "top" : "input.9",
      "blob_weights" : 11,
      "K" : 32,
      "blob_biases" : 9,
      "name" : "input.9",
      "has_batch_norm" : 0,
      "type" : "convolution",
      "n_groups" : 1,
      "pad_t" : 0,
      "has_biases" : 1,
      "C" : 16,
      "bottom" : "input.7",
      "weights" : {

      },
      "Nx" : 1,
      "pad_mode" : 0,
      "pad_value" : 0,
      "Ny" : 1,
      "n_parallel" : 1
    },
    {
      "pad_r" : 0,
      "fused_relu" : 0,
      "fused_tanh" : 0,
      "debug_info" : "input.11",
      "pad_fill_mode" : 0,
      "pad_b" : 0,
      "pad_l" : 0,
      "top" : "input.11",
      "blob_weights" : 15,
      "K" : 16,
      "blob_biases" : 13,
      "name" : "input.11",
      "has_batch_norm" : 0,
      "type" : "convolution",
      "n_groups" : 1,
      "pad_t" : 0,
      "has_biases" : 1,
      "C" : 96,
      "bottom" : "input.9",
      "weights" : {

      },
      "Nx" : 1,
      "pad_mode" : 0,
      "pad_value" : 0,
      "Ny" : 1,
      "n_parallel" : 1
    },
    {
      "bottom" : "input.11",
      "alpha" : 0,
      "operation" : 119,
      "weights" : {

      },
      "fused_relu" : 0,
      "debug_info" : "input.12",
      "top" : "input.12",
      "type" : "elementwise",
      "name" : "input.12",
      "beta" : 6
    },
    {
      "pad_r" : 1,
      "fused_relu" : 0,
      "fused_tanh" : 0,
      "debug_info" : "input.14",
      "pad_fill_mode" : 0,
      "pad_b" : 1,
      "pad_l" : 1,
      "top" : "input.14",
      "blob_weights" : 19,
      "K" : 96,
      "blob_biases" : 17,
      "stride_x" : 2,
      "name" : "input.14",
      "has_batch_norm" : 0,
      "type" : "convolution",
      "n_groups" : 96,
      "pad_t" : 1,
      "stride_y" : 2,
      "has_biases" : 1,
      "C" : 96,
      "bottom" : "input.12",
      "weights" : {

      },
      "Nx" : 3,
      "pad_mode" : 0,
      "pad_value" : 0,
      "Ny" : 3,
      "n_parallel" : 1
    },
    {
      "bottom" : "input.14",
      "alpha" : 0,
      "operation" : 119,
      "weights" : {

      },
      "fused_relu" : 0,
      "debug_info" : "input.15",
      "top" : "input.15",
      "type" : "elementwise",
      "name" : "input.15",
      "beta" : 6
    },
    {
      "pad_r" : 0,
      "fused_relu" : 0,
      "fused_tanh" : 0,
      "debug_info" : "input.17",
      "pad_fill_mode" : 0,
      "pad_b" : 0,
      "pad_l" : 0,
      "top" : "input.17",
      "blob_weights" : 23,
      "K" : 96,
      "blob_biases" : 21,
      "name" : "input.17",
      "has_batch_norm" : 0,
      "type" : "convolution",
      "n_groups" : 1,
      "pad_t" : 0,
      "has_biases" : 1,
      "C" : 24,
      "bottom" : "input.15",
      "weights" : {

      },
      "Nx" : 1,
      "pad_mode" : 0,
      "pad_value" : 0,
      "Ny" : 1,
      "n_parallel" : 1
    },
    {
      "pad_r" : 0,
      "fused_relu" : 0,
      "fused_tanh" : 0,
      "debug_info" : "input.19",
      "pad_fill_mode" : 0,
      "pad_b" : 0,
      "pad_l" : 0,
      "top" : "input.19",
      "blob_weights" : 27,
      "K" : 24,
      "blob_biases" : 25,
      "name" : "input.19",
      "has_batch_norm" : 0,
      "type" : "convolution",
      "n_groups" : 1,
      "pad_t" : 0,
      "has_biases" : 1,
      "C" : 144,
      "bottom" : "input.17",
      "weights" : {

      },
      "Nx" : 1,
      "pad_mode" : 0,
      "pad_value" : 0,
      "Ny" : 1,
      "n_parallel" : 1
    },
    {
      "bottom" : "input.19",
      "alpha" : 0,
      "operation" : 119,
      "weights" : {

      },
      "fused_relu" : 0,
      "debug_info" : "input.20",
      "top" : "input.20",
      "type" : "elementwise",
      "name" : "input.20",
      "beta" : 6
    },
    {
      "pad_r" : 1,
      "fused_relu" : 0,
      "fused_tanh" : 0,
      "debug_info" : "input.22",
      "pad_fill_mode" : 0,
      "pad_b" : 1,
      "pad_l" : 1,
      "top" : "input.22",
      "blob_weights" : 31,
      "K" : 144,
      "blob_biases" : 29,
      "name" : "input.22",
      "has_batch_norm" : 0,
      "type" : "convolution",
      "n_groups" : 144,
      "pad_t" : 1,
      "has_biases" : 1,
      "C" : 144,
      "bottom" : "input.20",
      "weights" : {

      },
      "Nx" : 3,
      "pad_mode" : 0,
      "pad_value" : 0,
      "Ny" : 3,
      "n_parallel" : 1
    },
    {
      "bottom" : "input.22",
      "alpha" : 0,
      "operation" : 119,
      "weights" : {

      },
      "fused_relu" : 0,
      "debug_info" : "input.23",
      "top" : "input.23",
      "type" : "elementwise",
      "name" : "input.23",
      "beta" : 6
    },
    {
      "pad_r" : 0,
      "fused_relu" : 0,
      "fused_tanh" : 0,
      "debug_info" : "170",
      "pad_fill_mode" : 0,
      "pad_b" : 0,
      "pad_l" : 0,
      "top" : "170",
      "blob_weights" : 35,
      "K" : 144,
      "blob_biases" : 33,
      "name" : "170",
      "has_batch_norm" : 0,
      "type" : "convolution",
      "n_groups" : 1,
      "pad_t" : 0,
      "has_biases" : 1,
      "C" : 24,
      "bottom" : "input.23",
      "weights" : {

      },
      "Nx" : 1,
      "pad_mode" : 0,
      "pad_value" : 0,
      "Ny" : 1,
      "n_parallel" : 1
    },
    {
      "bottom" : "input.17,170",
      "alpha" : 1,
      "operation" : 0,
      "weights" : {

      },
      "fused_relu" : 0,
      "debug_info" : "input.25",
      "top" : "input.25",
      "type" : "elementwise",
      "name" : "input.25",
      "beta" : 0
    },
    {
      "pad_r" : 0,
      "fused_relu" : 0,
      "fused_tanh" : 0,
      "debug_info" : "input.27",
      "pad_fill_mode" : 0,
      "pad_b" : 0,
      "pad_l" : 0,
      "top" : "input.27",
      "blob_weights" : 39,
      "K" : 24,
      "blob_biases" : 37,
      "name" : "input.27",
      "has_batch_norm" : 0,
      "type" : "convolution",
      "n_groups" : 1,
      "pad_t" : 0,
      "has_biases" : 1,
      "C" : 144,
      "bottom" : "input.25",
      "weights" : {

      },
      "Nx" : 1,
      "pad_mode" : 0,
      "pad_value" : 0,
      "Ny" : 1,
      "n_parallel" : 1
    },
    {
      "bottom" : "input.27",
      "alpha" : 0,
      "operation" : 119,
      "weights" : {

      },
      "fused_relu" : 0,
      "debug_info" : "input.28",
      "top" : "input.28",
      "type" : "elementwise",
      "name" : "input.28",
      "beta" : 6
    },
    {
      "pad_r" : 1,
      "fused_relu" : 0,
      "fused_tanh" : 0,
      "debug_info" : "input.30",
      "pad_fill_mode" : 0,
      "pad_b" : 1,
      "pad_l" : 1,
      "top" : "input.30",
      "blob_weights" : 43,
      "K" : 144,
      "blob_biases" : 41,
      "stride_x" : 2,
      "name" : "input.30",
      "has_batch_norm" : 0,
      "type" : "convolution",
      "n_groups" : 144,
      "pad_t" : 1,
      "stride_y" : 2,
      "has_biases" : 1,
      "C" : 144,
      "bottom" : "input.28",
      "weights" : {

      },
      "Nx" : 3,
      "pad_mode" : 0,
      "pad_value" : 0,
      "Ny" : 3,
      "n_parallel" : 1
    },
    {
      "bottom" : "input.30",
      "alpha" : 0,
      "operation" : 119,
      "weights" : {

      },
      "fused_relu" : 0,
      "debug_info" : "input.31",
      "top" : "input.31",
      "type" : "elementwise",
      "name" : "input.31",
      "beta" : 6
    },
    {
      "pad_r" : 0,
      "fused_relu" : 0,
      "fused_tanh" : 0,
      "debug_info" : "input.33",
      "pad_fill_mode" : 0,
      "pad_b" : 0,
      "pad_l" : 0,
      "top" : "input.33",
      "blob_weights" : 47,
      "K" : 144,
      "blob_biases" : 45,
      "name" : "input.33",
      "has_batch_norm" : 0,
      "type" : "convolution",
      "n_groups" : 1,
      "pad_t" : 0,
      "has_biases" : 1,
      "C" : 32,
      "bottom" : "input.31",
      "weights" : {

      },
      "Nx" : 1,
      "pad_mode" : 0,
      "pad_value" : 0,
      "Ny" : 1,
      "n_parallel" : 1
    },
    {
      "pad_r" : 0,
      "fused_relu" : 0,
      "fused_tanh" : 0,
      "debug_info" : "input.35",
      "pad_fill_mode" : 0,
      "pad_b" : 0,
      "pad_l" : 0,
      "top" : "input.35",
      "blob_weights" : 51,
      "K" : 32,
      "blob_biases" : 49,
      "name" : "input.35",
      "has_batch_norm" : 0,
      "type" : "convolution",
      "n_groups" : 1,
      "pad_t" : 0,
      "has_biases" : 1,
      "C" : 192,
      "bottom" : "input.33",
      "weights" : {

      },
      "Nx" : 1,
      "pad_mode" : 0,
      "pad_value" : 0,
      "Ny" : 1,
      "n_parallel" : 1
    },
    {
      "bottom" : "input.35",
      "alpha" : 0,
      "operation" : 119,
      "weights" : {

      },
      "fused_relu" : 0,
      "debug_info" : "input.36",
      "top" : "input.36",
      "type" : "elementwise",
      "name" : "input.36",
      "beta" : 6
    },
    {
      "pad_r" : 1,
      "fused_relu" : 0,
      "fused_tanh" : 0,
      "debug_info" : "input.38",
      "pad_fill_mode" : 0,
      "pad_b" : 1,
      "pad_l" : 1,
      "top" : "input.38",
      "blob_weights" : 55,
      "K" : 192,
      "blob_biases" : 53,
      "name" : "input.38",
      "has_batch_norm" : 0,
      "type" : "convolution",
      "n_groups" : 192,
      "pad_t" : 1,
      "has_biases" : 1,
      "C" : 192,
      "bottom" : "input.36",
      "weights" : {

      },
      "Nx" : 3,
      "pad_mode" : 0,
      "pad_value" : 0,
      "Ny" : 3,
      "n_parallel" : 1
    },
    {
      "bottom" : "input.38",
      "alpha" : 0,
      "operation" : 119,
      "weights" : {

      },
      "fused_relu" : 0,
      "debug_info" : "input.39",
      "top" : "input.39",
      "type" : "elementwise",
      "name" : "input.39",
      "beta" : 6
    },
    {
      "pad_r" : 0,
      "fused_relu" : 0,
      "fused_tanh" : 0,
      "debug_info" : "259",
      "pad_fill_mode" : 0,
      "pad_b" : 0,
      "pad_l" : 0,
      "top" : "259",
      "blob_weights" : 59,
      "K" : 192,
      "blob_biases" : 57,
      "name" : "259",
      "has_batch_norm" : 0,
      "type" : "convolution",
      "n_groups" : 1,
      "pad_t" : 0,
      "has_biases" : 1,
      "C" : 32,
      "bottom" : "input.39",
      "weights" : {

      },
      "Nx" : 1,
      "pad_mode" : 0,
      "pad_value" : 0,
      "Ny" : 1,
      "n_parallel" : 1
    },
    {
      "bottom" : "input.33,259",
      "alpha" : 1,
      "operation" : 0,
      "weights" : {

      },
      "fused_relu" : 0,
      "debug_info" : "input.41",
      "top" : "input.41",
      "type" : "elementwise",
      "name" : "input.41",
      "beta" : 0
    },
    {
      "pad_r" : 0,
      "fused_relu" : 0,
      "fused_tanh" : 0,
      "debug_info" : "input.43",
      "pad_fill_mode" : 0,
      "pad_b" : 0,
      "pad_l" : 0,
      "top" : "input.43",
      "blob_weights" : 63,
      "K" : 32,
      "blob_biases" : 61,
      "name" : "input.43",
      "has_batch_norm" : 0,
      "type" : "convolution",
      "n_groups" : 1,
      "pad_t" : 0,
      "has_biases" : 1,
      "C" : 192,
      "bottom" : "input.41",
      "weights" : {

      },
      "Nx" : 1,
      "pad_mode" : 0,
      "pad_value" : 0,
      "Ny" : 1,
      "n_parallel" : 1
    },
    {
      "bottom" : "input.43",
      "alpha" : 0,
      "operation" : 119,
      "weights" : {

      },
      "fused_relu" : 0,
      "debug_info" : "input.44",
      "top" : "input.44",
      "type" : "elementwise",
      "name" : "input.44",
      "beta" : 6
    },
    {
      "pad_r" : 1,
      "fused_relu" : 0,
      "fused_tanh" : 0,
      "debug_info" : "input.46",
      "pad_fill_mode" : 0,
      "pad_b" : 1,
      "pad_l" : 1,
      "top" : "input.46",
      "blob_weights" : 67,
      "K" : 192,
      "blob_biases" : 65,
      "name" : "input.46",
      "has_batch_norm" : 0,
      "type" : "convolution",
      "n_groups" : 192,
      "pad_t" : 1,
      "has_biases" : 1,
      "C" : 192,
      "bottom" : "input.44",
      "weights" : {

      },
      "Nx" : 3,
      "pad_mode" : 0,
      "pad_value" : 0,
      "Ny" : 3,
      "n_parallel" : 1
    },
    {
      "bottom" : "input.46",
      "alpha" : 0,
      "operation" : 119,
      "weights" : {

      },
      "fused_relu" : 0,
      "debug_info" : "input.47",
      "top" : "input.47",
      "type" : "elementwise",
      "name" : "input.47",
      "beta" : 6
    },
    {
      "pad_r" : 0,
      "fused_relu" : 0,
      "fused_tanh" : 0,
      "debug_info" : "304",
      "pad_fill_mode" : 0,
      "pad_b" : 0,
      "pad_l" : 0,
      "top" : "304",
      "blob_weights" : 71,
      "K" : 192,
      "blob_biases" : 69,
      "name" : "304",
      "has_batch_norm" : 0,
      "type" : "convolution",
      "n_groups" : 1,
      "pad_t" : 0,
      "has_biases" : 1,
      "C" : 32,
      "bottom" : "input.47",
      "weights" : {

      },
      "Nx" : 1,
      "pad_mode" : 0,
      "pad_value" : 0,
      "Ny" : 1,
      "n_parallel" : 1
    },
    {
      "bottom" : "input.41,304",
      "alpha" : 1,
      "operation" : 0,
      "weights" : {

      },
      "fused_relu" : 0,
      "debug_info" : "input.49",
      "top" : "input.49",
      "type" : "elementwise",
      "name" : "input.49",
      "beta" : 0
    },
    {
      "pad_r" : 0,
      "fused_relu" : 0,
      "fused_tanh" : 0,
      "debug_info" : "input.51",
      "pad_fill_mode" : 0,
      "pad_b" : 0,
      "pad_l" : 0,
      "top" : "input.51",
      "blob_weights" : 75,
      "K" : 32,
      "blob_biases" : 73,
      "name" : "input.51",
      "has_batch_norm" : 0,
      "type" : "convolution",
      "n_groups" : 1,
      "pad_t" : 0,
      "has_biases" : 1,
      "C" : 192,
      "bottom" : "input.49",
      "weights" : {

      },
      "Nx" : 1,
      "pad_mode" : 0,
      "pad_value" : 0,
      "Ny" : 1,
      "n_parallel" : 1
    },
    {
      "bottom" : "input.51",
      "alpha" : 0,
      "operation" : 119,
      "weights" : {

      },
      "fused_relu" : 0,
      "debug_info" : "input.52",
      "top" : "input.52",
      "type" : "elementwise",
      "name" : "input.52",
      "beta" : 6
    },
    {
      "pad_r" : 1,
      "fused_relu" : 0,
      "fused_tanh" : 0,
      "debug_info" : "input.54",
      "pad_fill_mode" : 0,
      "pad_b" : 1,
      "pad_l" : 1,
      "top" : "input.54",
      "blob_weights" : 79,
      "K" : 192,
      "blob_biases" : 77,
      "stride_x" : 2,
      "name" : "input.54",
      "has_batch_norm" : 0,
      "type" : "convolution",
      "n_groups" : 192,
      "pad_t" : 1,
      "stride_y" : 2,
      "has_biases" : 1,
      "C" : 192,
      "bottom" : "input.52",
      "weights" : {

      },
      "Nx" : 3,
      "pad_mode" : 0,
      "pad_value" : 0,
      "Ny" : 3,
      "n_parallel" : 1
    },
    {
      "bottom" : "input.54",
      "alpha" : 0,
      "operation" : 119,
      "weights" : {

      },
      "fused_relu" : 0,
      "debug_info" : "input.55",
      "top" : "input.55",
      "type" : "elementwise",
      "name" : "input.55",
      "beta" : 6
    },
    {
      "pad_r" : 0,
      "fused_relu" : 0,
      "fused_tanh" : 0,
      "debug_info" : "input.57",
      "pad_fill_mode" : 0,
      "pad_b" : 0,
      "pad_l" : 0,
      "top" : "input.57",
      "blob_weights" : 83,
      "K" : 192,
      "blob_biases" : 81,
      "name" : "input.57",
      "has_batch_norm" : 0,
      "type" : "convolution",
      "n_groups" : 1,
      "pad_t" : 0,
      "has_biases" : 1,
      "C" : 64,
      "bottom" : "input.55",
      "weights" : {

      },
      "Nx" : 1,
      "pad_mode" : 0,
      "pad_value" : 0,
      "Ny" : 1,
      "n_parallel" : 1
    },
    {
      "pad_r" : 0,
      "fused_relu" : 0,
      "fused_tanh" : 0,
      "debug_info" : "input.59",
      "pad_fill_mode" : 0,
      "pad_b" : 0,
      "pad_l" : 0,
      "top" : "input.59",
      "blob_weights" : 87,
      "K" : 64,
      "blob_biases" : 85,
      "name" : "input.59",
      "has_batch_norm" : 0,
      "type" : "convolution",
      "n_groups" : 1,
      "pad_t" : 0,
      "has_biases" : 1,
      "C" : 384,
      "bottom" : "input.57",
      "weights" : {

      },
      "Nx" : 1,
      "pad_mode" : 0,
      "pad_value" : 0,
      "Ny" : 1,
      "n_parallel" : 1
    },
    {
      "bottom" : "input.59",
      "alpha" : 0,
      "operation" : 119,
      "weights" : {

      },
      "fused_relu" : 0,
      "debug_info" : "input.60",
      "top" : "input.60",
      "type" : "elementwise",
      "name" : "input.60",
      "beta" : 6
    },
    {
      "pad_r" : 1,
      "fused_relu" : 0,
      "fused_tanh" : 0,
      "debug_info" : "input.62",
      "pad_fill_mode" : 0,
      "pad_b" : 1,
      "pad_l" : 1,
      "top" : "input.62",
      "blob_weights" : 91,
      "K" : 384,
      "blob_biases" : 89,
      "name" : "input.62",
      "has_batch_norm" : 0,
      "type" : "convolution",
      "n_groups" : 384,
      "pad_t" : 1,
      "has_biases" : 1,
      "C" : 384,
      "bottom" : "input.60",
      "weights" : {

      },
      "Nx" : 3,
      "pad_mode" : 0,
      "pad_value" : 0,
      "Ny" : 3,
      "n_parallel" : 1
    },
    {
      "bottom" : "input.62",
      "alpha" : 0,
      "operation" : 119,
      "weights" : {

      },
      "fused_relu" : 0,
      "debug_info" : "input.63",
      "top" : "input.63",
      "type" : "elementwise",
      "name" : "input.63",
      "beta" : 6
    },
    {
      "pad_r" : 0,
      "fused_relu" : 0,
      "fused_tanh" : 0,
      "debug_info" : "393",
      "pad_fill_mode" : 0,
      "pad_b" : 0,
      "pad_l" : 0,
      "top" : "393",
      "blob_weights" : 95,
      "K" : 384,
      "blob_biases" : 93,
      "name" : "393",
      "has_batch_norm" : 0,
      "type" : "convolution",
      "n_groups" : 1,
      "pad_t" : 0,
      "has_biases" : 1,
      "C" : 64,
      "bottom" : "input.63",
      "weights" : {

      },
      "Nx" : 1,
      "pad_mode" : 0,
      "pad_value" : 0,
      "Ny" : 1,
      "n_parallel" : 1
    },
    {
      "bottom" : "input.57,393",
      "alpha" : 1,
      "operation" : 0,
      "weights" : {

      },
      "fused_relu" : 0,
      "debug_info" : "input.65",
      "top" : "input.65",
      "type" : "elementwise",
      "name" : "input.65",
      "beta" : 0
    },
    {
      "pad_r" : 0,
      "fused_relu" : 0,
      "fused_tanh" : 0,
      "debug_info" : "input.67",
      "pad_fill_mode" : 0,
      "pad_b" : 0,
      "pad_l" : 0,
      "top" : "input.67",
      "blob_weights" : 99,
      "K" : 64,
      "blob_biases" : 97,
      "name" : "input.67",
      "has_batch_norm" : 0,
      "type" : "convolution",
      "n_groups" : 1,
      "pad_t" : 0,
      "has_biases" : 1,
      "C" : 384,
      "bottom" : "input.65",
      "weights" : {

      },
      "Nx" : 1,
      "pad_mode" : 0,
      "pad_value" : 0,
      "Ny" : 1,
      "n_parallel" : 1
    },
    {
      "bottom" : "input.67",
      "alpha" : 0,
      "operation" : 119,
      "weights" : {

      },
      "fused_relu" : 0,
      "debug_info" : "input.68",
      "top" : "input.68",
      "type" : "elementwise",
      "name" : "input.68",
      "beta" : 6
    },
    {
      "pad_r" : 1,
      "fused_relu" : 0,
      "fused_tanh" : 0,
      "debug_info" : "input.70",
      "pad_fill_mode" : 0,
      "pad_b" : 1,
      "pad_l" : 1,
      "top" : "input.70",
      "blob_weights" : 103,
      "K" : 384,
      "blob_biases" : 101,
      "name" : "input.70",
      "has_batch_norm" : 0,
      "type" : "convolution",
      "n_groups" : 384,
      "pad_t" : 1,
      "has_biases" : 1,
      "C" : 384,
      "bottom" : "input.68",
      "weights" : {

      },
      "Nx" : 3,
      "pad_mode" : 0,
      "pad_value" : 0,
      "Ny" : 3,
      "n_parallel" : 1
    },
    {
      "bottom" : "input.70",
      "alpha" : 0,
      "operation" : 119,
      "weights" : {

      },
      "fused_relu" : 0,
      "debug_info" : "input.71",
      "top" : "input.71",
      "type" : "elementwise",
      "name" : "input.71",
      "beta" : 6
    },
    {
      "pad_r" : 0,
      "fused_relu" : 0,
      "fused_tanh" : 0,
      "debug_info" : "438",
      "pad_fill_mode" : 0,
      "pad_b" : 0,
      "pad_l" : 0,
      "top" : "438",
      "blob_weights" : 107,
      "K" : 384,
      "blob_biases" : 105,
      "name" : "438",
      "has_batch_norm" : 0,
      "type" : "convolution",
      "n_groups" : 1,
      "pad_t" : 0,
      "has_biases" : 1,
      "C" : 64,
      "bottom" : "input.71",
      "weights" : {

      },
      "Nx" : 1,
      "pad_mode" : 0,
      "pad_value" : 0,
      "Ny" : 1,
      "n_parallel" : 1
    },
    {
      "bottom" : "input.65,438",
      "alpha" : 1,
      "operation" : 0,
      "weights" : {

      },
      "fused_relu" : 0,
      "debug_info" : "input.73",
      "top" : "input.73",
      "type" : "elementwise",
      "name" : "input.73",
      "beta" : 0
    },
    {
      "pad_r" : 0,
      "fused_relu" : 0,
      "fused_tanh" : 0,
      "debug_info" : "input.75",
      "pad_fill_mode" : 0,
      "pad_b" : 0,
      "pad_l" : 0,
      "top" : "input.75",
      "blob_weights" : 111,
      "K" : 64,
      "blob_biases" : 109,
      "name" : "input.75",
      "has_batch_norm" : 0,
      "type" : "convolution",
      "n_groups" : 1,
      "pad_t" : 0,
      "has_biases" : 1,
      "C" : 384,
      "bottom" : "input.73",
      "weights" : {

      },
      "Nx" : 1,
      "pad_mode" : 0,
      "pad_value" : 0,
      "Ny" : 1,
      "n_parallel" : 1
    },
    {
      "bottom" : "input.75",
      "alpha" : 0,
      "operation" : 119,
      "weights" : {

      },
      "fused_relu" : 0,
      "debug_info" : "input.76",
      "top" : "input.76",
      "type" : "elementwise",
      "name" : "input.76",
      "beta" : 6
    },
    {
      "pad_r" : 1,
      "fused_relu" : 0,
      "fused_tanh" : 0,
      "debug_info" : "input.78",
      "pad_fill_mode" : 0,
      "pad_b" : 1,
      "pad_l" : 1,
      "top" : "input.78",
      "blob_weights" : 115,
      "K" : 384,
      "blob_biases" : 113,
      "name" : "input.78",
      "has_batch_norm" : 0,
      "type" : "convolution",
      "n_groups" : 384,
      "pad_t" : 1,
      "has_biases" : 1,
      "C" : 384,
      "bottom" : "input.76",
      "weights" : {

      },
      "Nx" : 3,
      "pad_mode" : 0,
      "pad_value" : 0,
      "Ny" : 3,
      "n_parallel" : 1
    },
    {
      "bottom" : "input.78",
      "alpha" : 0,
      "operation" : 119,
      "weights" : {

      },
      "fused_relu" : 0,
      "debug_info" : "input.79",
      "top" : "input.79",
      "type" : "elementwise",
      "name" : "input.79",
      "beta" : 6
    },
    {
      "pad_r" : 0,
      "fused_relu" : 0,
      "fused_tanh" : 0,
      "debug_info" : "483",
      "pad_fill_mode" : 0,
      "pad_b" : 0,
      "pad_l" : 0,
      "top" : "483",
      "blob_weights" : 119,
      "K" : 384,
      "blob_biases" : 117,
      "name" : "483",
      "has_batch_norm" : 0,
      "type" : "convolution",
      "n_groups" : 1,
      "pad_t" : 0,
      "has_biases" : 1,
      "C" : 64,
      "bottom" : "input.79",
      "weights" : {

      },
      "Nx" : 1,
      "pad_mode" : 0,
      "pad_value" : 0,
      "Ny" : 1,
      "n_parallel" : 1
    },
    {
      "bottom" : "input.73,483",
      "alpha" : 1,
      "operation" : 0,
      "weights" : {

      },
      "fused_relu" : 0,
      "debug_info" : "input.81",
      "top" : "input.81",
      "type" : "elementwise",
      "name" : "input.81",
      "beta" : 0
    },
    {
      "pad_r" : 0,
      "fused_relu" : 0,
      "fused_tanh" : 0,
      "debug_info" : "input.83",
      "pad_fill_mode" : 0,
      "pad_b" : 0,
      "pad_l" : 0,
      "top" : "input.83",
      "blob_weights" : 123,
      "K" : 64,
      "blob_biases" : 121,
      "name" : "input.83",
      "has_batch_norm" : 0,
      "type" : "convolution",
      "n_groups" : 1,
      "pad_t" : 0,
      "has_biases" : 1,
      "C" : 384,
      "bottom" : "input.81",
      "weights" : {

      },
      "Nx" : 1,
      "pad_mode" : 0,
      "pad_value" : 0,
      "Ny" : 1,
      "n_parallel" : 1
    },
    {
      "bottom" : "input.83",
      "alpha" : 0,
      "operation" : 119,
      "weights" : {

      },
      "fused_relu" : 0,
      "debug_info" : "input.84",
      "top" : "input.84",
      "type" : "elementwise",
      "name" : "input.84",
      "beta" : 6
    },
    {
      "pad_r" : 1,
      "fused_relu" : 0,
      "fused_tanh" : 0,
      "debug_info" : "input.86",
      "pad_fill_mode" : 0,
      "pad_b" : 1,
      "pad_l" : 1,
      "top" : "input.86",
      "blob_weights" : 127,
      "K" : 384,
      "blob_biases" : 125,
      "name" : "input.86",
      "has_batch_norm" : 0,
      "type" : "convolution",
      "n_groups" : 384,
      "pad_t" : 1,
      "has_biases" : 1,
      "C" : 384,
      "bottom" : "input.84",
      "weights" : {

      },
      "Nx" : 3,
      "pad_mode" : 0,
      "pad_value" : 0,
      "Ny" : 3,
      "n_parallel" : 1
    },
    {
      "bottom" : "input.86",
      "alpha" : 0,
      "operation" : 119,
      "weights" : {

      },
      "fused_relu" : 0,
      "debug_info" : "input.87",
      "top" : "input.87",
      "type" : "elementwise",
      "name" : "input.87",
      "beta" : 6
    },
    {
      "pad_r" : 0,
      "fused_relu" : 0,
      "fused_tanh" : 0,
      "debug_info" : "input.89",
      "pad_fill_mode" : 0,
      "pad_b" : 0,
      "pad_l" : 0,
      "top" : "input.89",
      "blob_weights" : 131,
      "K" : 384,
      "blob_biases" : 129,
      "name" : "input.89",
      "has_batch_norm" : 0,
      "type" : "convolution",
      "n_groups" : 1,
      "pad_t" : 0,
      "has_biases" : 1,
      "C" : 96,
      "bottom" : "input.87",
      "weights" : {

      },
      "Nx" : 1,
      "pad_mode" : 0,
      "pad_value" : 0,
      "Ny" : 1,
      "n_parallel" : 1
    },
    {
      "pad_r" : 0,
      "fused_relu" : 0,
      "fused_tanh" : 0,
      "debug_info" : "input.91",
      "pad_fill_mode" : 0,
      "pad_b" : 0,
      "pad_l" : 0,
      "top" : "input.91",
      "blob_weights" : 135,
      "K" : 96,
      "blob_biases" : 133,
      "name" : "input.91",
      "has_batch_norm" : 0,
      "type" : "convolution",
      "n_groups" : 1,
      "pad_t" : 0,
      "has_biases" : 1,
      "C" : 576,
      "bottom" : "input.89",
      "weights" : {

      },
      "Nx" : 1,
      "pad_mode" : 0,
      "pad_value" : 0,
      "Ny" : 1,
      "n_parallel" : 1
    },
    {
      "bottom" : "input.91",
      "alpha" : 0,
      "operation" : 119,
      "weights" : {

      },
      "fused_relu" : 0,
      "debug_info" : "input.92",
      "top" : "input.92",
      "type" : "elementwise",
      "name" : "input.92",
      "beta" : 6
    },
    {
      "pad_r" : 1,
      "fused_relu" : 0,
      "fused_tanh" : 0,
      "debug_info" : "input.94",
      "pad_fill_mode" : 0,
      "pad_b" : 1,
      "pad_l" : 1,
      "top" : "input.94",
      "blob_weights" : 139,
      "K" : 576,
      "blob_biases" : 137,
      "name" : "input.94",
      "has_batch_norm" : 0,
      "type" : "convolution",
      "n_groups" : 576,
      "pad_t" : 1,
      "has_biases" : 1,
      "C" : 576,
      "bottom" : "input.92",
      "weights" : {

      },
      "Nx" : 3,
      "pad_mode" : 0,
      "pad_value" : 0,
      "Ny" : 3,
      "n_parallel" : 1
    },
    {
      "bottom" : "input.94",
      "alpha" : 0,
      "operation" : 119,
      "weights" : {

      },
      "fused_relu" : 0,
      "debug_info" : "input.95",
      "top" : "input.95",
      "type" : "elementwise",
      "name" : "input.95",
      "beta" : 6
    },
    {
      "pad_r" : 0,
      "fused_relu" : 0,
      "fused_tanh" : 0,
      "debug_info" : "572",
      "pad_fill_mode" : 0,
      "pad_b" : 0,
      "pad_l" : 0,
      "top" : "572",
      "blob_weights" : 143,
      "K" : 576,
      "blob_biases" : 141,
      "name" : "572",
      "has_batch_norm" : 0,
      "type" : "convolution",
      "n_groups" : 1,
      "pad_t" : 0,
      "has_biases" : 1,
      "C" : 96,
      "bottom" : "input.95",
      "weights" : {

      },
      "Nx" : 1,
      "pad_mode" : 0,
      "pad_value" : 0,
      "Ny" : 1,
      "n_parallel" : 1
    },
    {
      "bottom" : "input.89,572",
      "alpha" : 1,
      "operation" : 0,
      "weights" : {

      },
      "fused_relu" : 0,
      "debug_info" : "input.97",
      "top" : "input.97",
      "type" : "elementwise",
      "name" : "input.97",
      "beta" : 0
    },
    {
      "pad_r" : 0,
      "fused_relu" : 0,
      "fused_tanh" : 0,
      "debug_info" : "input.99",
      "pad_fill_mode" : 0,
      "pad_b" : 0,
      "pad_l" : 0,
      "top" : "input.99",
      "blob_weights" : 147,
      "K" : 96,
      "blob_biases" : 145,
      "name" : "input.99",
      "has_batch_norm" : 0,
      "type" : "convolution",
      "n_groups" : 1,
      "pad_t" : 0,
      "has_biases" : 1,
      "C" : 576,
      "bottom" : "input.97",
      "weights" : {

      },
      "Nx" : 1,
      "pad_mode" : 0,
      "pad_value" : 0,
      "Ny" : 1,
      "n_parallel" : 1
    },
    {
      "bottom" : "input.99",
      "alpha" : 0,
      "operation" : 119,
      "weights" : {

      },
      "fused_relu" : 0,
      "debug_info" : "input.100",
      "top" : "input.100",
      "type" : "elementwise",
      "name" : "input.100",
      "beta" : 6
    },
    {
      "pad_r" : 1,
      "fused_relu" : 0,
      "fused_tanh" : 0,
      "debug_info" : "input.102",
      "pad_fill_mode" : 0,
      "pad_b" : 1,
      "pad_l" : 1,
      "top" : "input.102",
      "blob_weights" : 151,
      "K" : 576,
      "blob_biases" : 149,
      "name" : "input.102",
      "has_batch_norm" : 0,
      "type" : "convolution",
      "n_groups" : 576,
      "pad_t" : 1,
      "has_biases" : 1,
      "C" : 576,
      "bottom" : "input.100",
      "weights" : {

      },
      "Nx" : 3,
      "pad_mode" : 0,
      "pad_value" : 0,
      "Ny" : 3,
      "n_parallel" : 1
    },
    {
      "bottom" : "input.102",
      "alpha" : 0,
      "operation" : 119,
      "weights" : {

      },
      "fused_relu" : 0,
      "debug_info" : "input.103",
      "top" : "input.103",
      "type" : "elementwise",
      "name" : "input.103",
      "beta" : 6
    },
    {
      "pad_r" : 0,
      "fused_relu" : 0,
      "fused_tanh" : 0,
      "debug_info" : "617",
      "pad_fill_mode" : 0,
      "pad_b" : 0,
      "pad_l" : 0,
      "top" : "617",
      "blob_weights" : 155,
      "K" : 576,
      "blob_biases" : 153,
      "name" : "617",
      "has_batch_norm" : 0,
      "type" : "convolution",
      "n_groups" : 1,
      "pad_t" : 0,
      "has_biases" : 1,
      "C" : 96,
      "bottom" : "input.103",
      "weights" : {

      },
      "Nx" : 1,
      "pad_mode" : 0,
      "pad_value" : 0,
      "Ny" : 1,
      "n_parallel" : 1
    },
    {
      "bottom" : "input.97,617",
      "alpha" : 1,
      "operation" : 0,
      "weights" : {

      },
      "fused_relu" : 0,
      "debug_info" : "input.105",
      "top" : "input.105",
      "type" : "elementwise",
      "name" : "input.105",
      "beta" : 0
    },
    {
      "pad_r" : 0,
      "fused_relu" : 0,
      "fused_tanh" : 0,
      "debug_info" : "input.107",
      "pad_fill_mode" : 0,
      "pad_b" : 0,
      "pad_l" : 0,
      "top" : "input.107",
      "blob_weights" : 159,
      "K" : 96,
      "blob_biases" : 157,
      "name" : "input.107",
      "has_batch_norm" : 0,
      "type" : "convolution",
      "n_groups" : 1,
      "pad_t" : 0,
      "has_biases" : 1,
      "C" : 576,
      "bottom" : "input.105",
      "weights" : {

      },
      "Nx" : 1,
      "pad_mode" : 0,
      "pad_value" : 0,
      "Ny" : 1,
      "n_parallel" : 1
    },
    {
      "bottom" : "input.107",
      "alpha" : 0,
      "operation" : 119,
      "weights" : {

      },
      "fused_relu" : 0,
      "debug_info" : "input.108",
      "top" : "input.108",
      "type" : "elementwise",
      "name" : "input.108",
      "beta" : 6
    },
    {
      "pad_r" : 1,
      "fused_relu" : 0,
      "fused_tanh" : 0,
      "debug_info" : "input.110",
      "pad_fill_mode" : 0,
      "pad_b" : 1,
      "pad_l" : 1,
      "top" : "input.110",
      "blob_weights" : 163,
      "K" : 576,
      "blob_biases" : 161,
      "stride_x" : 2,
      "name" : "input.110",
      "has_batch_norm" : 0,
      "type" : "convolution",
      "n_groups" : 576,
      "pad_t" : 1,
      "stride_y" : 2,
      "has_biases" : 1,
      "C" : 576,
      "bottom" : "input.108",
      "weights" : {

      },
      "Nx" : 3,
      "pad_mode" : 0,
      "pad_value" : 0,
      "Ny" : 3,
      "n_parallel" : 1
    },
    {
      "bottom" : "input.110",
      "alpha" : 0,
      "operation" : 119,
      "weights" : {

      },
      "fused_relu" : 0,
      "debug_info" : "input.111",
      "top" : "input.111",
      "type" : "elementwise",
      "name" : "input.111",
      "beta" : 6
    },
    {
      "pad_r" : 0,
      "fused_relu" : 0,
      "fused_tanh" : 0,
      "debug_info" : "input.113",
      "pad_fill_mode" : 0,
      "pad_b" : 0,
      "pad_l" : 0,
      "top" : "input.113",
      "blob_weights" : 167,
      "K" : 576,
      "blob_biases" : 165,
      "name" : "input.113",
      "has_batch_norm" : 0,
      "type" : "convolution",
      "n_groups" : 1,
      "pad_t" : 0,
      "has_biases" : 1,
      "C" : 160,
      "bottom" : "input.111",
      "weights" : {

      },
      "Nx" : 1,
      "pad_mode" : 0,
      "pad_value" : 0,
      "Ny" : 1,
      "n_parallel" : 1
    },
    {
      "pad_r" : 0,
      "fused_relu" : 0,
      "fused_tanh" : 0,
      "debug_info" : "input.115",
      "pad_fill_mode" : 0,
      "pad_b" : 0,
      "pad_l" : 0,
      "top" : "input.115",
      "blob_weights" : 171,
      "K" : 160,
      "blob_biases" : 169,
      "name" : "input.115",
      "has_batch_norm" : 0,
      "type" : "convolution",
      "n_groups" : 1,
      "pad_t" : 0,
      "has_biases" : 1,
      "C" : 960,
      "bottom" : "input.113",
      "weights" : {

      },
      "Nx" : 1,
      "pad_mode" : 0,
      "pad_value" : 0,
      "Ny" : 1,
      "n_parallel" : 1
    },
    {
      "bottom" : "input.115",
      "alpha" : 0,
      "operation" : 119,
      "weights" : {

      },
      "fused_relu" : 0,
      "debug_info" : "input.116",
      "top" : "input.116",
      "type" : "elementwise",
      "name" : "input.116",
      "beta" : 6
    },
    {
      "pad_r" : 1,
      "fused_relu" : 0,
      "fused_tanh" : 0,
      "debug_info" : "input.118",
      "pad_fill_mode" : 0,
      "pad_b" : 1,
      "pad_l" : 1,
      "top" : "input.118",
      "blob_weights" : 175,
      "K" : 960,
      "blob_biases" : 173,
      "name" : "input.118",
      "has_batch_norm" : 0,
      "type" : "convolution",
      "n_groups" : 960,
      "pad_t" : 1,
      "has_biases" : 1,
      "C" : 960,
      "bottom" : "input.116",
      "weights" : {

      },
      "Nx" : 3,
      "pad_mode" : 0,
      "pad_value" : 0,
      "Ny" : 3,
      "n_parallel" : 1
    },
    {
      "bottom" : "input.118",
      "alpha" : 0,
      "operation" : 119,
      "weights" : {

      },
      "fused_relu" : 0,
      "debug_info" : "input.119",
      "top" : "input.119",
      "type" : "elementwise",
      "name" : "input.119",
      "beta" : 6
    },
    {
      "pad_r" : 0,
      "fused_relu" : 0,
      "fused_tanh" : 0,
      "debug_info" : "706",
      "pad_fill_mode" : 0,
      "pad_b" : 0,
      "pad_l" : 0,
      "top" : "706",
      "blob_weights" : 179,
      "K" : 960,
      "blob_biases" : 177,
      "name" : "706",
      "has_batch_norm" : 0,
      "type" : "convolution",
      "n_groups" : 1,
      "pad_t" : 0,
      "has_biases" : 1,
      "C" : 160,
      "bottom" : "input.119",
      "weights" : {

      },
      "Nx" : 1,
      "pad_mode" : 0,
      "pad_value" : 0,
      "Ny" : 1,
      "n_parallel" : 1
    },
    {
      "bottom" : "input.113,706",
      "alpha" : 1,
      "operation" : 0,
      "weights" : {

      },
      "fused_relu" : 0,
      "debug_info" : "input.121",
      "top" : "input.121",
      "type" : "elementwise",
      "name" : "input.121",
      "beta" : 0
    },
    {
      "pad_r" : 0,
      "fused_relu" : 0,
      "fused_tanh" : 0,
      "debug_info" : "input.123",
      "pad_fill_mode" : 0,
      "pad_b" : 0,
      "pad_l" : 0,
      "top" : "input.123",
      "blob_weights" : 183,
      "K" : 160,
      "blob_biases" : 181,
      "name" : "input.123",
      "has_batch_norm" : 0,
      "type" : "convolution",
      "n_groups" : 1,
      "pad_t" : 0,
      "has_biases" : 1,
      "C" : 960,
      "bottom" : "input.121",
      "weights" : {

      },
      "Nx" : 1,
      "pad_mode" : 0,
      "pad_value" : 0,
      "Ny" : 1,
      "n_parallel" : 1
    },
    {
      "bottom" : "input.123",
      "alpha" : 0,
      "operation" : 119,
      "weights" : {

      },
      "fused_relu" : 0,
      "debug_info" : "input.124",
      "top" : "input.124",
      "type" : "elementwise",
      "name" : "input.124",
      "beta" : 6
    },
    {
      "pad_r" : 1,
      "fused_relu" : 0,
      "fused_tanh" : 0,
      "debug_info" : "input.126",
      "pad_fill_mode" : 0,
      "pad_b" : 1,
      "pad_l" : 1,
      "top" : "input.126",
      "blob_weights" : 187,
      "K" : 960,
      "blob_biases" : 185,
      "name" : "input.126",
      "has_batch_norm" : 0,
      "type" : "convolution",
      "n_groups" : 960,
      "pad_t" : 1,
      "has_biases" : 1,
      "C" : 960,
      "bottom" : "input.124",
      "weights" : {

      },
      "Nx" : 3,
      "pad_mode" : 0,
      "pad_value" : 0,
      "Ny" : 3,
      "n_parallel" : 1
    },
    {
      "bottom" : "input.126",
      "alpha" : 0,
      "operation" : 119,
      "weights" : {

      },
      "fused_relu" : 0,
      "debug_info" : "input.127",
      "top" : "input.127",
      "type" : "elementwise",
      "name" : "input.127",
      "beta" : 6
    },
    {
      "pad_r" : 0,
      "fused_relu" : 0,
      "fused_tanh" : 0,
      "debug_info" : "751",
      "pad_fill_mode" : 0,
      "pad_b" : 0,
      "pad_l" : 0,
      "top" : "751",
      "blob_weights" : 191,
      "K" : 960,
      "blob_biases" : 189,
      "name" : "751",
      "has_batch_norm" : 0,
      "type" : "convolution",
      "n_groups" : 1,
      "pad_t" : 0,
      "has_biases" : 1,
      "C" : 160,
      "bottom" : "input.127",
      "weights" : {

      },
      "Nx" : 1,
      "pad_mode" : 0,
      "pad_value" : 0,
      "Ny" : 1,
      "n_parallel" : 1
    },
    {
      "bottom" : "input.121,751",
      "alpha" : 1,
      "operation" : 0,
      "weights" : {

      },
      "fused_relu" : 0,
      "debug_info" : "input.129",
      "top" : "input.129",
      "type" : "elementwise",
      "name" : "input.129",
      "beta" : 0
    },
    {
      "pad_r" : 0,
      "fused_relu" : 0,
      "fused_tanh" : 0,
      "debug_info" : "input.131",
      "pad_fill_mode" : 0,
      "pad_b" : 0,
      "pad_l" : 0,
      "top" : "input.131",
      "blob_weights" : 195,
      "K" : 160,
      "blob_biases" : 193,
      "name" : "input.131",
      "has_batch_norm" : 0,
      "type" : "convolution",
      "n_groups" : 1,
      "pad_t" : 0,
      "has_biases" : 1,
      "C" : 960,
      "bottom" : "input.129",
      "weights" : {

      },
      "Nx" : 1,
      "pad_mode" : 0,
      "pad_value" : 0,
      "Ny" : 1,
      "n_parallel" : 1
    },
    {
      "bottom" : "input.131",
      "alpha" : 0,
      "operation" : 119,
      "weights" : {

      },
      "fused_relu" : 0,
      "debug_info" : "input.132",
      "top" : "input.132",
      "type" : "elementwise",
      "name" : "input.132",
      "beta" : 6
    },
    {
      "pad_r" : 1,
      "fused_relu" : 0,
      "fused_tanh" : 0,
      "debug_info" : "input.134",
      "pad_fill_mode" : 0,
      "pad_b" : 1,
      "pad_l" : 1,
      "top" : "input.134",
      "blob_weights" : 199,
      "K" : 960,
      "blob_biases" : 197,
      "name" : "input.134",
      "has_batch_norm" : 0,
      "type" : "convolution",
      "n_groups" : 960,
      "pad_t" : 1,
      "has_biases" : 1,
      "C" : 960,
      "bottom" : "input.132",
      "weights" : {

      },
      "Nx" : 3,
      "pad_mode" : 0,
      "pad_value" : 0,
      "Ny" : 3,
      "n_parallel" : 1
    },
    {
      "bottom" : "input.134",
      "alpha" : 0,
      "operation" : 119,
      "weights" : {

      },
      "fused_relu" : 0,
      "debug_info" : "input.135",
      "top" : "input.135",
      "type" : "elementwise",
      "name" : "input.135",
      "beta" : 6
    },
    {
      "pad_r" : 0,
      "fused_relu" : 0,
      "fused_tanh" : 0,
      "debug_info" : "input.137",
      "pad_fill_mode" : 0,
      "pad_b" : 0,
      "pad_l" : 0,
      "top" : "input.137",
      "blob_weights" : 203,
      "K" : 960,
      "blob_biases" : 201,
      "name" : "input.137",
      "has_batch_norm" : 0,
      "type" : "convolution",
      "n_groups" : 1,
      "pad_t" : 0,
      "has_biases" : 1,
      "C" : 320,
      "bottom" : "input.135",
      "weights" : {

      },
      "Nx" : 1,
      "pad_mode" : 0,
      "pad_value" : 0,
      "Ny" : 1,
      "n_parallel" : 1
    },
    {
      "pad_r" : 0,
      "fused_relu" : 0,
      "fused_tanh" : 0,
      "debug_info" : "input.139",
      "pad_fill_mode" : 0,
      "pad_b" : 0,
      "pad_l" : 0,
      "top" : "input.139",
      "blob_weights" : 207,
      "K" : 320,
      "blob_biases" : 205,
      "name" : "input.139",
      "has_batch_norm" : 0,
      "type" : "convolution",
      "n_groups" : 1,
      "pad_t" : 0,
      "has_biases" : 1,
      "C" : 1280,
      "bottom" : "input.137",
      "weights" : {

      },
      "Nx" : 1,
      "pad_mode" : 0,
      "pad_value" : 0,
      "Ny" : 1,
      "n_parallel" : 1
    },
    {
      "bottom" : "input.139",
      "alpha" : 0,
      "operation" : 119,
      "weights" : {

      },
      "fused_relu" : 0,
      "debug_info" : "input.140",
      "top" : "input.140",
      "type" : "elementwise",
      "name" : "input.140",
      "beta" : 6
    },
    {
      "pad_r" : 0,
      "debug_info" : "814",
      "pad_fill_mode" : 0,
      "pad_b" : 0,
      "pad_l" : 0,
      "size_x" : 14,
      "is_global" : 1,
      "top" : "814",
      "top_shape_style" : 0,
      "stride_x" : 1,
      "avg_or_max" : 0,
      "average_count_exclude_padding" : 1,
      "type" : "pool",
      "name" : "814",
      "pad_t" : 0,
      "stride_y" : 1,
      "bottom" : "input.140",
      "weights" : {

      },
      "pad_mode" : 2,
      "size_y" : 14,
      "pad_value" : 0
    },
    {
      "name" : "input.141",
      "weights" : {

      },
      "dst_w" : -1,
      "version" : 1,
      "dst_n" : 1,
      "dst_nd_rank" : 2,
      "type" : "reshape",
      "dst_h" : 1,
      "mode" : 0,
      "dynamic_shape" : false,
      "bottom" : "814",
      "debug_info" : "input.141",
      "dst_seq" : 1,
      "dst_k" : 1,
      "top" : "input.141"
    },
    {
      "has_prelu" : 0,
      "top" : "var_830",
      "has_biases" : 1,
      "weights" : {

      },
      "nC" : 3,
      "blob_weights" : 211,
      "type" : "inner_product",
      "has_relu" : 0,
      "attributes" : {
        "is_output" : 1
      },
      "bottom" : "input.141",
      "debug_info" : "830",
      "has_tanh" : 0,
      "blob_biases" : 209,
      "name" : "830",
      "nB" : 1280
    }
  ],
  "transform_params" : {
    "input_1" : {
      "bias_a" : 0,
      "bias_g" : -2.0357143878936768,
      "bias_r" : -1.804444432258606,
      "bias_b" : -2.1179039478302002,
      "center_mean" : 0,
      "is_network_bgr" : 0,
      "scale" : 0.017352074384689331
    }
  },
  "storage" : "model.espresso.weights",
  "metadata_in_weights" : [

  ],
  "properties" : {

  },
  "analyses" : {

  },
  "format_version" : 200
}